…
          "base_uri": "https://localhost:8080/",
          "height": 461
        },
        "outputId": "e88a3b1c-f2ec-4060-bd6e-3ccc18529d1b"
      },
      "source": [
        "model.summary()"
      ],
      "execution_count": 131,
      "outputs": [
        {
          "output_type": "stream",
          "text": [
            "_________________________________________________________________\n",
            "Layer (type)                 Output Shape              Param #   \n",
            "=================================================================\n",
            "lstm_7 (LSTM)                (None, 60, 50)            10400     \n",
            "_________________________________________________________________\n",
            "dropout_7 (Dropout)          (None, 60, 50)            0         \n",
            "_________________________________________________________________\n",
            "lstm_8 (LSTM)                (None, 60, 50)            20200     \n",
            "_________________________________________________________________\n",
            "dropout_8 (Dropout)          (None, 60, 50)            0         \n",
            "_________________________________________________________________\n",
            "lstm_9 (LSTM)                (None, 60, 50)            20200     \n",
            "_________________________________________________________________\n",
            "dropout_9 (Dropout)          (None, 60, 50)            0         \n",
            "_________________________________________________________________\n",
            "lstm_10 (LSTM)               (None, 50)                20200     \n",
            "_________________________________________________________________\n",
            "dropout_10 (Dropout)         (None, 50)                0         \n",
            "_________________________________________________________________\n",
            "dense_2 (Dense)              (None, 1)                 51        \n",
            "=================================================================\n",
            "Total params: 71,051\n",
            "Trainable params: 71,051\n",
            "Non-trainable params: 0\n",
            "_________________________________________________________________\n"
          ],
          "name": "stdout"
        }
      ]
    },
    {
      "cell_type": "code",
      "metadata": {
…
